…
WARNING:tensorflow:From /gpfslocalsup/pub/anaconda-py3/2019.10/envs/tensorflow-gpu-1.14-openmpi/lib/python3.7/site-packages/keras/backend/tensorflow_backend.py:4074: The name tf.nn.avg_pool is deprecated. Please use tf.nn.avg_pool2d instead.

(11, 11, 22, 200)
(11, 11, 22, 200)
Model: "model_1"
__________________________________________________________________________________________________
Layer (type)                    Output Shape         Param #     Connected to                     
==================================================================================================
input_1 (InputLayer)            (None, 200, 200, 22) 0                                            
__________________________________________________________________________________________________
lambda_1 (Lambda)               (None, 200, 200, 22) 0           input_1[0][0]                    
__________________________________________________________________________________________________
average_pooling2d_1 (AveragePoo (None, 50, 50, 22)   0           lambda_1[0][0]                   
__________________________________________________________________________________________________
conv2d_1 (Conv2D)               (None, 50, 50, 200)  532400      average_pooling2d_1[0][0]        
__________________________________________________________________________________________________
conv2d_2 (Conv2D)               (None, 50, 50, 200)  40000       conv2d_1[0][0]                   
__________________________________________________________________________________________________
conv2d_3 (Conv2D)               (None, 50, 50, 1000) 200000      conv2d_2[0][0]                   
__________________________________________________________________________________________________
conv2d_5 (Conv2D)               (None, 50, 50, 200)  200000      conv2d_3[0][0]                   
__________________________________________________________________________________________________
conv2d_6 (Conv2D)               (None, 50, 50, 200)  200000      conv2d_3[0][0]                   
__________________________________________________________________________________________________
multiply_1 (Multiply)           (None, 50, 50, 200)  0           conv2d_5[0][0]                   
                                                                 conv2d_6[0][0]                   
__________________________________________________________________________________________________
conv2d_4 (Conv2D)               (None, 50, 50, 200)  200000      conv2d_3[0][0]                   
__________________________________________________________________________________________________
add_1 (Add)                     (None, 50, 50, 200)  0           multiply_1[0][0]                 
                                                                 conv2d_4[0][0]                   
__________________________________________________________________________________________________
activation_1 (Activation)       (None, 50, 50, 200)  0           add_1[0][0]                      
__________________________________________________________________________________________________
add_2 (Add)                     (None, 50, 50, 200)  0           conv2d_2[0][0]                   
                                                                 activation_1[0][0]               
__________________________________________________________________________________________________
conv2d_7 (Conv2D)               (None, 50, 50, 1000) 200000      add_2[0][0]                      
__________________________________________________________________________________________________
conv2d_9 (Conv2D)               (None, 50, 50, 200)  200000      conv2d_7[0][0]                   
__________________________________________________________________________________________________
conv2d_10 (Conv2D)              (None, 50, 50, 200)  200000      conv2d_7[0][0]                   
__________________________________________________________________________________________________
multiply_2 (Multiply)           (None, 50, 50, 200)  0           conv2d_9[0][0]                   
                                                                 conv2d_10[0][0]                  
__________________________________________________________________________________________________
conv2d_8 (Conv2D)               (None, 50, 50, 200)  200000      conv2d_7[0][0]                   
__________________________________________________________________________________________________
add_3 (Add)                     (None, 50, 50, 200)  0           multiply_2[0][0]                 
                                                                 conv2d_8[0][0]                   
__________________________________________________________________________________________________
activation_2 (Activation)       (None, 50, 50, 200)  0           add_3[0][0]                      
__________________________________________________________________________________________________
add_4 (Add)                     (None, 50, 50, 200)  0           add_2[0][0]                      
                                                                 activation_2[0][0]               
__________________________________________________________________________________________________
conv2d_11 (Conv2D)              (None, 50, 50, 1000) 200000      add_4[0][0]                      
__________________________________________________________________________________________________
conv2d_13 (Conv2D)              (None, 50, 50, 200)  200000      conv2d_11[0][0]                  
__________________________________________________________________________________________________
conv2d_14 (Conv2D)              (None, 50, 50, 200)  200000      conv2d_11[0][0]                  
__________________________________________________________________________________________________
multiply_3 (Multiply)           (None, 50, 50, 200)  0           conv2d_13[0][0]                  
                                                                 conv2d_14[0][0]                  
__________________________________________________________________________________________________
conv2d_12 (Conv2D)              (None, 50, 50, 200)  200000      conv2d_11[0][0]                  
__________________________________________________________________________________________________
add_5 (Add)                     (None, 50, 50, 200)  0           multiply_3[0][0]                 
                                                                 conv2d_12[0][0]                  
__________________________________________________________________________________________________
activation_3 (Activation)       (None, 50, 50, 200)  0           add_5[0][0]                      
__________________________________________________________________________________________________
add_6 (Add)                     (None, 50, 50, 200)  0           add_4[0][0]                      
                                                                 activation_3[0][0]               
__________________________________________________________________________________________________
conv2d_15 (Conv2D)              (None, 50, 50, 1000) 200000      add_6[0][0]                      
__________________________________________________________________________________________________
conv2d_17 (Conv2D)              (None, 50, 50, 200)  200000      conv2d_15[0][0]                  
__________________________________________________________________________________________________
conv2d_18 (Conv2D)              (None, 50, 50, 200)  200000      conv2d_15[0][0]                  
__________________________________________________________________________________________________
multiply_4 (Multiply)           (None, 50, 50, 200)  0           conv2d_17[0][0]                  
                                                                 conv2d_18[0][0]                  
__________________________________________________________________________________________________
conv2d_16 (Conv2D)              (None, 50, 50, 200)  200000      conv2d_15[0][0]                  
__________________________________________________________________________________________________
add_7 (Add)                     (None, 50, 50, 200)  0           multiply_4[0][0]                 
                                                                 conv2d_16[0][0]                  
__________________________________________________________________________________________________
activation_4 (Activation)       (None, 50, 50, 200)  0           add_7[0][0]                      
__________________________________________________________________________________________________
add_8 (Add)                     (None, 50, 50, 200)  0           add_6[0][0]                      
                                                                 activation_4[0][0]               
__________________________________________________________________________________________________
conv2d_19 (Conv2D)              (None, 50, 50, 1000) 200000      add_8[0][0]                      
__________________________________________________________________________________________________
conv2d_21 (Conv2D)              (None, 50, 50, 200)  200000      conv2d_19[0][0]                  
__________________________________________________________________________________________________
conv2d_22 (Conv2D)              (None, 50, 50, 200)  200000      conv2d_19[0][0]                  
__________________________________________________________________________________________________
multiply_5 (Multiply)           (None, 50, 50, 200)  0           conv2d_21[0][0]                  
                                                                 conv2d_22[0][0]                  
__________________________________________________________________________________________________
conv2d_20 (Conv2D)              (None, 50, 50, 200)  200000      conv2d_19[0][0]                  
__________________________________________________________________________________________________
add_9 (Add)                     (None, 50, 50, 200)  0           multiply_5[0][0]                 
                                                                 conv2d_20[0][0]                  
__________________________________________________________________________________________________
activation_5 (Activation)       (None, 50, 50, 200)  0           add_9[0][0]                      
__________________________________________________________________________________________________
add_10 (Add)                    (None, 50, 50, 200)  0           add_8[0][0]                      
                                                                 activation_5[0][0]               
__________________________________________________________________________________________________
conv2d_23 (Conv2D)              (None, 50, 50, 1000) 200000      add_10[0][0]                     
__________________________________________________________________________________________________
conv2d_25 (Conv2D)              (None, 50, 50, 200)  200000      conv2d_23[0][0]                  
__________________________________________________________________________________________________
conv2d_26 (Conv2D)              (None, 50, 50, 200)  200000      conv2d_23[0][0]                  
__________________________________________________________________________________________________
multiply_6 (Multiply)           (None, 50, 50, 200)  0           conv2d_25[0][0]                  
                                                                 conv2d_26[0][0]                  
__________________________________________________________________________________________________
conv2d_24 (Conv2D)              (None, 50, 50, 200)  200000      conv2d_23[0][0]                  
__________________________________________________________________________________________________
add_11 (Add)                    (None, 50, 50, 200)  0           multiply_6[0][0]                 
                                                                 conv2d_24[0][0]                  
__________________________________________________________________________________________________
activation_6 (Activation)       (None, 50, 50, 200)  0           add_11[0][0]                     
__________________________________________________________________________________________________
add_12 (Add)                    (None, 50, 50, 200)  0           add_10[0][0]                     
                                                                 activation_6[0][0]               
__________________________________________________________________________________________________
conv2d_27 (Conv2D)              (None, 50, 50, 1000) 200000      add_12[0][0]                     
__________________________________________________________________________________________________
conv2d_29 (Conv2D)              (None, 50, 50, 200)  200000      conv2d_27[0][0]                  
__________________________________________________________________________________________________
conv2d_30 (Conv2D)              (None, 50, 50, 200)  200000      conv2d_27[0][0]                  
__________________________________________________________________________________________________
multiply_7 (Multiply)           (None, 50, 50, 200)  0           conv2d_29[0][0]                  
                                                                 conv2d_30[0][0]                  
__________________________________________________________________________________________________
conv2d_28 (Conv2D)              (None, 50, 50, 200)  200000      conv2d_27[0][0]                  
__________________________________________________________________________________________________
add_13 (Add)                    (None, 50, 50, 200)  0           multiply_7[0][0]                 
                                                                 conv2d_28[0][0]                  
__________________________________________________________________________________________________
activation_7 (Activation)       (None, 50, 50, 200)  0           add_13[0][0]                     
__________________________________________________________________________________________________
add_14 (Add)                    (None, 50, 50, 200)  0           add_12[0][0]                     
                                                                 activation_7[0][0]               
__________________________________________________________________________________________________
conv2d_31 (Conv2D)              (None, 50, 50, 1000) 200000      add_14[0][0]                     
__________________________________________________________________________________________________
conv2d_33 (Conv2D)              (None, 50, 50, 200)  200000      conv2d_31[0][0]                  
__________________________________________________________________________________________________
conv2d_34 (Conv2D)              (None, 50, 50, 200)  200000      conv2d_31[0][0]                  
__________________________________________________________________________________________________
multiply_8 (Multiply)           (None, 50, 50, 200)  0           conv2d_33[0][0]                  
                                                                 conv2d_34[0][0]                  
__________________________________________________________________________________________________
conv2d_32 (Conv2D)              (None, 50, 50, 200)  200000      conv2d_31[0][0]                  
__________________________________________________________________________________________________
add_15 (Add)                    (None, 50, 50, 200)  0           multiply_8[0][0]                 
                                                                 conv2d_32[0][0]                  
__________________________________________________________________________________________________
activation_8 (Activation)       (None, 50, 50, 200)  0           add_15[0][0]                     
__________________________________________________________________________________________________
add_16 (Add)                    (None, 50, 50, 200)  0           add_14[0][0]                     
                                                                 activation_8[0][0]               
__________________________________________________________________________________________________
conv2d_35 (Conv2D)              (None, 50, 50, 1000) 200000      add_16[0][0]                     
__________________________________________________________________________________________________
conv2d_37 (Conv2D)              (None, 50, 50, 200)  200000      conv2d_35[0][0]                  
__________________________________________________________________________________________________
conv2d_38 (Conv2D)              (None, 50, 50, 200)  200000      conv2d_35[0][0]                  
__________________________________________________________________________________________________
multiply_9 (Multiply)           (None, 50, 50, 200)  0           conv2d_37[0][0]                  
                                                                 conv2d_38[0][0]                  
__________________________________________________________________________________________________
conv2d_36 (Conv2D)              (None, 50, 50, 200)  200000      conv2d_35[0][0]                  
__________________________________________________________________________________________________
add_17 (Add)                    (None, 50, 50, 200)  0           multiply_9[0][0]                 
                                                                 conv2d_36[0][0]                  
__________________________________________________________________________________________________
activation_9 (Activation)       (None, 50, 50, 200)  0           add_17[0][0]                     
__________________________________________________________________________________________________
add_18 (Add)                    (None, 50, 50, 200)  0           add_16[0][0]                     
                                                                 activation_9[0][0]               
__________________________________________________________________________________________________
conv2d_39 (Conv2D)              (None, 50, 50, 1000) 200000      add_18[0][0]                     
__________________________________________________________________________________________________
conv2d_41 (Conv2D)              (None, 50, 50, 200)  200000      conv2d_39[0][0]                  
__________________________________________________________________________________________________
conv2d_42 (Conv2D)              (None, 50, 50, 200)  200000      conv2d_39[0][0]                  
__________________________________________________________________________________________________
multiply_10 (Multiply)          (None, 50, 50, 200)  0           conv2d_41[0][0]                  
                                                                 conv2d_42[0][0]                  
__________________________________________________________________________________________________
conv2d_40 (Conv2D)              (None, 50, 50, 200)  200000      conv2d_39[0][0]                  
__________________________________________________________________________________________________
add_19 (Add)                    (None, 50, 50, 200)  0           multiply_10[0][0]                
                                                                 conv2d_40[0][0]                  
__________________________________________________________________________________________________
activation_10 (Activation)      (None, 50, 50, 200)  0           add_19[0][0]                     
__________________________________________________________________________________________________
add_20 (Add)                    (None, 50, 50, 200)  0           add_18[0][0]                     
                                                                 activation_10[0][0]              
__________________________________________________________________________________________________
conv2d_43 (Conv2D)              (None, 50, 50, 11)   2200        add_20[0][0]                     
__________________________________________________________________________________________________
conv2d_transpose_1 (Conv2DTrans (None, 200, 200, 11) 1936        conv2d_43[0][0]                  
__________________________________________________________________________________________________
conv2d_44 (Conv2D)              (None, 200, 200, 400 39600       conv2d_transpose_1[0][0]         
__________________________________________________________________________________________________
conv2d_45 (Conv2D)              (None, 200, 200, 11) 39600       conv2d_44[0][0]                  
==================================================================================================
Total params: 8,655,736
Trainable params: 8,655,736
Non-trainable params: 0
__________________________________________________________________________________________________
Model: "model_2"
_________________________________________________________________
Layer (type)                 Output Shape              Param #   
=================================================================
input_3 (InputLayer)         (None, 200, 200, 22)      0         
_________________________________________________________________
lambda_2 (Lambda)            (None, 200, 200, 22)      0         
=================================================================
Total params: 0
Trainable params: 0
Non-trainable params: 0
_________________________________________________________________
Model: "model_3"
__________________________________________________________________________________________________
Layer (type)                    Output Shape         Param #     Connected to                     
==================================================================================================
input_4 (InputLayer)            (None, 200, 200, 22) 0                                            
__________________________________________________________________________________________________
input_5 (InputLayer)            (None, 200, 200, 22) 0                                            
__________________________________________________________________________________________________
model_1 (Model)                 (None, 200, 200, 11) 8655736     input_4[0][0]                    
                                                                 input_5[0][0]                    
__________________________________________________________________________________________________
model_2 (Model)                 multiple             0           model_1[1][0]                    
==================================================================================================
…
Trainable params: 8,655,736
Non-trainable params: 0
__________________________________________________________________________________________________
..... Start learning AE model 2 FP/Grad FP
..... Update/initialize number of projections in DINCOnvAE model # 5
Model: "model_4"
__________________________________________________________________________________________________
Layer (type)                    Output Shape         Param #     Connected to                     
==================================================================================================
input_6 (InputLayer)            (None, 200, 200, 22) 0                                            
__________________________________________________________________________________________________
lambda_40 (Lambda)              (None, 200, 200, 22) 0           input_6[0][0]                    
__________________________________________________________________________________________________
input_7 (InputLayer)            (None, 200, 200, 22) 0                                            
__________________________________________________________________________________________________
model_3 (Model)                 (None, 200, 200, 11) 8655736     lambda_40[0][0]                  
                                                                 input_7[0][0]                    
==================================================================================================
Total params: 8,655,736
Trainable params: 8,655,736
Non-trainable params: 0
__________________________________________________________________________________________________
Model: "model_5"
__________________________________________________________________________________________________
Layer (type)                    Output Shape         Param #     Connected to                     
==================================================================================================
input_7 (InputLayer)            (None, 200, 200, 22) 0                                            
__________________________________________________________________________________________________
input_6 (InputLayer)            (None, 200, 200, 22) 0                                            
__________________________________________________________________________________________________
lambda_45 (Lambda)              (None, 200, 200, 22) 0           input_7[0][0]                    
__________________________________________________________________________________________________
lambda_58 (Lambda)              (None, 200, 200, 22) 0           input_7[0][0]                    
__________________________________________________________________________________________________
model_4 (Model)                 (None, 200, 200, 11) 8655736     input_6[0][0]                    
                                                                 lambda_45[0][0]                  
__________________________________________________________________________________________________
lambda_50 (Lambda)              (None, 200, 200, 11) 0           input_6[0][0]                    
__________________________________________________________________________________________________
lambda_59 (Lambda)              (None, 200, 200, 11) 0           input_6[0][0]                    
__________________________________________________________________________________________________
model_3 (Model)                 (None, 200, 200, 11) 8655736     input_6[0][0]                    
                                                                 lambda_58[0][0]                  
                                                                 input_6[0][0]                    
                                                                 lambda_62[0][0]                  
__________________________________________________________________________________________________
lambda_62 (Lambda)              (None, 200, 200, 22) 0           input_7[0][0]                    
__________________________________________________________________________________________________
subtract_1 (Subtract)           (None, 200, 200, 11) 0           model_4[1][0]                    
                                                                 lambda_50[0][0]                  
__________________________________________________________________________________________________
lambda_51 (Lambda)              (None, 200, 200, 11) 0           input_7[0][0]                    
__________________________________________________________________________________________________
subtract_2 (Subtract)           (None, 200, 200, 11) 0           lambda_59[0][0]                  
                                                                 model_3[7][0]                    
__________________________________________________________________________________________________
lambda_60 (Lambda)              (None, 200, 200, 11) 0           input_7[0][0]                    
__________________________________________________________________________________________________
lambda_63 (Lambda)              (None, 200, 200, 11) 0           input_6[0][0]                    
__________________________________________________________________________________________________
multiply_31 (Multiply)          (None, 200, 200, 11) 0           subtract_1[0][0]                 
                                                                 lambda_51[0][0]                  
__________________________________________________________________________________________________
multiply_33 (Multiply)          (None, 200, 200, 11) 0           subtract_2[0][0]                 
                                                                 lambda_60[0][0]                  
__________________________________________________________________________________________________
subtract_3 (Subtract)           (None, 200, 200, 11) 0           model_3[8][0]                    
                                                                 lambda_63[0][0]                  
__________________________________________________________________________________________________
lambda_64 (Lambda)              (None, 200, 200, 11) 0           input_7[0][0]                    
__________________________________________________________________________________________________
multiply_32 (Multiply)          (None, 200, 200, 11) 0           multiply_31[0][0]                
                                                                 multiply_31[0][0]                
__________________________________________________________________________________________________
multiply_34 (Multiply)          (None, 200, 200, 11) 0           multiply_33[0][0]                
                                                                 multiply_33[0][0]                
__________________________________________________________________________________________________
multiply_35 (Multiply)          (None, 200, 200, 11) 0           subtract_3[0][0]                 
                                                                 lambda_64[0][0]                  
__________________________________________________________________________________________________
reshape_1 (Reshape)             (None, Dimension(200 0           multiply_32[0][0]                
__________________________________________________________________________________________________
reshape_3 (Reshape)             (None, Dimension(200 0           multiply_34[0][0]                
__________________________________________________________________________________________________
multiply_36 (Multiply)          (None, 200, 200, 11) 0           multiply_35[0][0]                
                                                                 multiply_35[0][0]                
__________________________________________________________________________________________________
global_average_pooling3d_1 (Glo (None, 1)            0           reshape_1[0][0]                  
__________________________________________________________________________________________________
global_average_pooling3d_2 (Glo (None, 1)            0           reshape_3[0][0]                  
__________________________________________________________________________________________________
reshape_5 (Reshape)             (None, Dimension(200 0           multiply_36[0][0]                
__________________________________________________________________________________________________
reshape_2 (Reshape)             (None, 1)            0           global_average_pooling3d_1[0][0] 
__________________________________________________________________________________________________
reshape_4 (Reshape)             (None, 1)            0           global_average_pooling3d_2[0][0] 
__________________________________________________________________________________________________
global_average_pooling3d_3 (Glo (None, 1)            0           reshape_5[0][0]                  
__________________________________________________________________________________________________
lambda_52 (Lambda)              (None, 1)            0           reshape_2[0][0]                  
__________________________________________________________________________________________________
lambda_61 (Lambda)              (None, 1)            0           reshape_4[0][0]                  
__________________________________________________________________________________________________
reshape_6 (Reshape)             (None, 1)            0           global_average_pooling3d_3[0][0] 
__________________________________________________________________________________________________
add_46 (Add)                    (None, 1)            0           lambda_52[0][0]                  
                                                                 lambda_61[0][0]                  
__________________________________________________________________________________________________
lambda_65 (Lambda)              (None, 1)            0           reshape_6[0][0]                  
__________________________________________________________________________________________________
add_47 (Add)                    (None, 1)            0           add_46[0][0]                     
                                                                 lambda_65[0][0]                  
__________________________________________________________________________________________________
lambda_66 (Lambda)              (None, 200, 200, 11) 0           model_4[1][0]                    
==================================================================================================
Total params: 8,655,736
Trainable params: 8,655,736
Non-trainable params: 0
__________________________________________________________________________________________________
WARNING:tensorflow:From /gpfslocalsup/pub/anaconda-py3/2019.10/envs/tensorflow-gpu-1.14-openmpi/lib/python3.7/site-packages/tensorflow/python/ops/math_grad.py:1250: add_dispatch_support.<locals>.wrapper (from tensorflow.python.ops.array_ops) is deprecated and will be removed in a future version.
…
